weight.npz (npz, 974 bytes, 3 tensors)

x_mean f8 [9]
0.7887702914140426 2.9645755916291807 3.425532955212204 3.1145853706239 61.72541071777822 57.38219245061607 5.713078427537649 5.715984255818502
3.526708879327205
00000000: 20c0 b531 9b3d e93f 9789 6468 73b7 0740
00000010: 9e0d 70d2 7d67 0b40 0170 1bbc abea 0840
00000020: 3e83 2642 dadc 4e40 4916 a6ae ebb0 4c40
00000030: 7c07 373b 31da 1640 f5c3 0cfa 2add 1640
00000040: 06c9 1925 b336 0c40

x_std f8 [9]
0.43977972150114786 1.051593814623869 1.6810454143932871 1.6657255355977603 1.282630887452286 2.0747654321397 1.1205889746109707 1.1141068504717402
0.6903781512479176
00000000: 98a6 52d8 5925 dc3f 37c4 2709 54d3 f03f
00000010: 198f 5ee0 8fe5 fa3f 4912 b8d1 cfa6 fa3f
00000020: 0427 27f7 a785 f43f 624a 6f9e 1e99 0040
00000030: 8e65 63b4 eeed f13f 3669 70b4 61d3 f13f
00000040: ab72 afeb 9317 e63f

theta f8 [10, 1]
3998.308271467936 4839.608379708042 102.8193364542714 582.2821584253712 883.1239695104093 -21.427857043397783 -66.30896580787983 -386.0195300984451
-154.80751855868908 -404.75191589184226
00000000: 2602 c2d5 9d3c af40 97c5 c5be 9be7 b240
00000010: 0ae1 2a02 70b4 5940 15ca 46dc 4132 8240
00000020: 4607 bae3 fd98 8b40 b9c1 080a 886d 35c0
00000030: 451b 8618 c693 50c0 c0e1 cafe 4f20 78c0
00000040: 720f 2931 d759 63c0 e24c f5d8 074c 79c0
